linear_classifier.pth (torch, 124917 bytes, 2 tensors)

linear.weight f4 [10, 3072]
0	0x3d1a0833	0.037605476
1	0xbcf4e3e1	-0.029893817
2	0xbe0d6335	-0.13807376
3	0xbd219a52	-0.039453812
4	0xbdb34f05	-0.08755306
5	0x3b94fa28	0.0045464225
6	0xbbe169eb	-0.0068790815
7	0xbce004f8	-0.02734612
8	0x3d4ec359	0.050479267
9	0xbcd73c35	-0.026273826
10	0xbd188cdb	-0.037243705
11	0x3d2458eb	0.04012386
12	0x3c9f156b	0.019419393
13	0x3d207fe0	0.03918445
14	0xbb9ee23f	-0.004848748
15	0xb8036798	-3.1329313e-05
16	0x3d26beab	0.04070918
17	0x3d3fa7c6	0.04679086
18	0xbd8959d3	-0.06706586
19	0xbe0dc4be	-0.13844582
20	0xbd7c1c7d	-0.061550606
21	0xbda265a5	-0.079295434
22	0x3cfd0be2	0.030889455
23	0x3cb86531	0.02250919
24	0xbd8094b8	-0.06278366
25	0xbd70ec1c	-0.05881892
26	0x3a8c7ac0	0.0010717735
27	0x3ccd7685	0.025080929
28	0x3d9ecf54	0.077543885
29	0x3d145759	0.036216114
30	0x3c12a824	0.008951221
31	0x3d83c573	0.06434145
32	0x3d1a2793	0.037635397
33	0x3d8bcb38	0.0682587
34	0xbc79cb4c	-0.015246224
35	0x3dd5e290	0.10443604
36	0x3db92297	0.090398006
37	0x3bbf291f	0.0058337594
38	0x397a4895	0.00023868897
39	0x3d1219e7	0.035669234
40	0x3cf8dff6	0.03038023
41	0xbd72c740	-0.05927205
42	0xbc3afe3a	-0.011413151
43	0x3dd42415	0.103584446
44	0x3d51f19e	0.051255815
45	0x3d873748	0.06602341
46	0x3e13ebb1	0.14445378
47	0x3dcb1c9a	0.09917565
48	0x3d82f7ae	0.063948974
49	0x3ce05003	0.027381903
50	0x3d1efe83	0.03881694
51	0xbda81c54	-0.08208528
52	0xbc4500e5	-0.012024139
53	0xbc8afd41	-0.016966464
54	0x3d6b6375	0.057467896
55	0xbc27a3eb	-0.010231952
56	0xbd8535e6	-0.06504421
57	0xbc8efc58	-0.017454311
58	0xbda3d01c	-0.07998678
59	0xbdcf759d	-0.10129855
60	0xbb85ea2c	-0.0040867534
61	0xbc909884	-0.01765085
62	0x3d54bfe8	0.05194083
63	0x3de66d8c	0.11251363
64	0xbdda9eb1	-0.10674799
65	0x3d4d695f	0.050149318
66	0xbb0980e9	-0.0020981377
67	0x3d408858	0.047005028
68	0x3e22ebb6	0.15910229
69	0x3ac9b8d3	0.0015390165
70	0xbda5317c	-0.08066079
71	0xbd961af8	-0.07329363
72	0xbd1c16f2	-0.03810782
73	0xbdaac344	-0.08338025
74	0xbde0347c	-0.109475106
75	0x3cf99efe	0.030471321
76	0xbc7bebe5	-0.015376066
77	0xbdcd7909	-0.10032851
78	0xbd44743e	-0.04796242
79	0xbd1eea3f	-0.038797613
80	0xbcffe717	-0.031238122
81	0xbd4e7219	-0.05040178
82	0x3a2ddf4f	0.0006632702
83	0xbdd71ccf	-0.10503542
84	0xbdb346b9	-0.08753724
85	0xbdefa5d3	-0.1170155
86	0x3d3b0a3e	0.045664065
87	0xbc88b833	-0.016689396
88	0xbd433116	-0.047654234
89	0xbd1b2f34	-0.037886813
90	0x3d829771	0.063765414
91	0x3dc87a84	0.09788993
92	0x3d4e1f78	0.05032298
93	0xbcea7831	-0.028621765
94	0xbd6f88d3	-0.058480095
95	0x3dbcc98c	0.092181295
96	0xbdba7c06	-0.09105687
97	0x3db9ab00	0.09065819
98	0x3da197f1	0.07890309
99	0x3ce7b365	0.028283784
100	0x3dafd86b	0.085862
101	0x3d3de0a8	0.046356827
102	0x3d274b12	0.040843077
103	0xbbe4490a	-0.0069667147
104	0xbd34a545	-0.044102926
105	0xbddb0f02	-0.10696222
106	0xbc6f016a	-0.0145877395
107	0x3debd066	0.11514358
108	0x3bd827fd	0.006596564
109	0x3cb434f8	0.021997914
110	0xbd020641	-0.031744245
111	0xbd3880b4	-0.045044616
112	0xbcb13f79	-0.021636711
113	0x3cb9a8b8	0.02266346
114	0x3d2892bb	0.041155558
115	0xbd58e61c	-0.052953824
116	0xbba311fd	-0.0049765096
117	0x3d811622	0.063030496
118	0x3d771350	0.060321152
119	0xbcd07caf	-0.025450079
120	0xbd308ed4	-0.04310496
121	0xbdd28327	-0.102789216
122	0x3c9c3e38	0.019072637
123	0x3c81a537	0.01582585
124	0xbd777a42	-0.06041933
125	0xbd3e8146	-0.046510004
126	0x3a8c738c	0.0010715588
127	0x3daaa31a	0.083318904
128	0xbd68d282	-0.05684138
129	0xbd018d03	-0.03162862
130	0x3d549106	0.051896118
131	0xbd9ab1a4	-0.075534135
132	0x3d51f610	0.051260054
133	0x3d06e940	0.03293729
134	0xbd99213a	-0.074770406
135	0xbdc02929	-0.09382851
136	0xbd735246	-0.059404634
137	0xbdcd9477	-0.10038083
138	0xbd2e0190	-0.04248196
139	0x3d9166f1	0.07099713
140	0xbb5d317d	-0.003375142
141	0x3d363bbb	0.044490557
142	0xbcc35d02	-0.02384806
143	0xbd85bfab	-0.065306984
144	0xbda53682	-0.08067037
145	0xbd0eff6c	-0.034911558
146	0xbd8be3a9	-0.06830532
147	0x3dbde8b2	0.09272899
148	0x3d3331ca	0.043748654
149	0x3d4c9bb2	0.04995317
150	0x3dd7539c	0.10513994
151	0x3d504b1b	0.050852876
152	0x3d2b6d22	0.041852124
153	0xbabe2f4c	-0.0014509945
154	0x3d568927	0.052376892
155	0x3d766bb0	0.060161293
156	0xbdaa2ae0	-0.08308959
157	0xbcf1bbd0	-0.029508501
158	0x3b877529	0.0041338396
159	0xbd3c7eb3	-0.046019267
160	0x3bc6bcfe	0.00606501
161	0xbd2378d9	-0.03991017
162	0xbd18661c	-0.037206754
163	0x3d20dc9b	0.039272886
164	0x3cff9d93	0.031203067
165	0x3d24347c	0.040089116
166	0x3ca6e3c3	0.020372277
167	0xbd6657af	-0.056235965
168	0xbdacd406	-0.08438878
169	0x3d3f2424	0.046665326
170	0xbd19b18d	-0.03752284
171	0x3dab0710	0.083509564
172	0x3d49ef34	0.049300388
173	0x3da3e3e4	0.08002451
174	0x39ae2855	0.00033217916
175	0xbd5e989e	-0.054344766
176	0xbd68a4c8	-0.056797773
177	0xbd851e83	-0.0649996
178	0x3c18cb47	0.009325809
179	0xbca3d460	-0.01999873
180	0x3da1f4c8	0.079080164
181	0x3d2d5267	0.042314913
182	0x3d86284d	0.065506555
183	0x3c650179	0.013977402
184	0xbd81e512	-0.0634252
185	0x3d181444	0.0371287
186	0x3dc40d10	0.09572804
187	0xbd19fc7a	-0.037594296
188	0x3d2e243e	0.042515032
189	0x3d4a33c3	0.04936577
190	0x3d8fb52d	0.070169784
191	0x3c2afcdc	0.010436263
192	0x3d0d3206	0.034471534
193	0x3d458202	0.04821969
194	0xbde7921b	-0.11307164
195	0xbc81841d	-0.015810067
196	0x3c8139d6	0.015774649
197	0x3c96d373	0.018411374
198	0x3d52677c	0.05136822
199	0xbc984937	-0.018589599
200	0xbdd72bdb	-0.10506412
201	0x3c8ba544	0.017046578
202	0x3d84c9c9	0.064838
203	0x3ddbcc9a	0.10732384
204	0x3c730d6e	0.014834745
205	0xbd5e535c	-0.054278716
206	0xbd841bbe	-0.06450604
207	0xbd806959	-0.062700935
208	0xbcb19878	-0.021679148
209	0xbd6cec02	-0.057842262
210	0x3c57e3ea	0.013176898
211	0xbd85b473	-0.065285586
212	0x3d54a69d	0.051916707
213	0x3bfdbb57	0.00774328
214	0xb9ddbcd4	-0.00042293093
215	0xbd81ff6f	-0.06347548
216	0xbdef5a39	-0.116871305
217	0x3d86e9a4	0.06587532
218	0x3c488d4f	0.012240722
219	0xbc1a50cd	-0.0094186785
220	0xbd1b9796	-0.03798636
221	0xbd708f48	-0.058730394
222	0xbd2151c3	-0.039384615
223	0xbda17366	-0.07883339
224	0x3cc3e572	0.023913119
225	0x3cbb00fa	0.022827614
226	0x3d9acd6f	0.075587146
227	0xbd8d2bb4	-0.06893101
228	0x3c8e1658	0.017344639
229	0x3d966ee8	0.073453724
230	0xbc488371	-0.012238369
231	0x3d6d6478	0.057957143
232	0xbd599148	-0.053117067
233	0xbd872e29	-0.06600601
234	0xbd9a988c	-0.07548627
235	0x3d497aab	0.04918925
236	0x3dc24dee	0.0948752
237	0xbd17ec30	-0.03709048
238	0x3d0226a3	0.031775128
239	0x3d862ff4	0.06552115
240	0xbd73c5f2	-0.059514947
241	0xbd91cb68	-0.07118875
242	0x3c5a8b60	0.013338894
243	0x3d849350	0.0647341
244	0x3daf3510	0.08555043
245	0xbd08a2ed	-0.033358503
246	0xbae3678f	-0.0017349588
247	0xbd60021f	-0.054689523
248	0xbcd6778d	-0.026180053
249	0x3d833f15	0.06408516
250	0x3da3b040	0.079926014
251	0x3e177a59	0.14792766
252	0xbd33ba0b	-0.043878596
253	0xbdaf46bb	-0.08558413
254	0xbd7fd567	-0.062459376
255	0x3c8acf69	0.016944604

linear.bias f4 [10]
0	0x3f073aac	0.528239
1	0xbe92fc28	-0.28708005
2	0x3ed042ec	0.40676057
3	0x3f20b2ed	0.6277302
4	0xbe23267a	-0.15932646
5	0x3f005465	0.50128776
6	0xbf02de14	-0.51120114
7	0xbeb6f6b7	-0.35735103
8	0xbc4568ad	-0.012048882
9	0xbf3ebb2a	-0.7450434
